middleware/eiq/tensorflow-lite/examples/image/cifar10/cifar10_model.tflite (tflite, 93328 bytes, 4 tensors)

CifarNet/conv1/weights_quant/FakeQuantWithMinMaxVars u1 [32, 5, 5, 3] scale=0.011637853 zero_point=146
0.046551414 0.046551414 0.10474068 -0.23275706 -0.034913562 -0.10474068 -0.011637853 0.011637853
-0.22111921 -0.058189265 -0.10474068 -0.22111921 0.26767063 0.20948136 0.034913562 0.24439493
0.023275707 0.046551414 0.23275706 0.0 0.13965425 -0.18620566 -0.38404918 -0.29094633
-0.034913562 -0.2793085 -0.16292995 0.3258599 0.24439493 0.2793085 0.0 -0.10474068
-0.23275706 0.1745678 0.034913562 0.034913562 0.10474068 -0.10474068 -0.023275707 0.1745678
0.034913562 -0.023275707 0.16292995 0.1512921 0.16292995 0.034913562 0.12801638 -0.034913562
0.058189265 -0.046551414 -0.081464976 0.069827124 0.09310283 -0.011637853 0.20948136 0.13965425
0.18620566 -0.3491356 -0.058189265 -0.11637853 0.011637853 0.20948136 0.046551414 -0.09310283
0.081464976 0.13965425 0.09310283 0.16292995 0.25603276 0.13965425 0.22111921 0.24439493
-0.24439493 0.12801638 0.13965425 -0.1512921 0.10474068 -0.011637853 -0.20948136 0.16292995
0.081464976 0.3025842 -0.011637853 0.1512921 -0.011637853 -0.58189267 -0.24439493 -0.18620566
0.3025842 0.13965425 -0.046551414 0.18620566 -0.034913562 -0.26767063 0.011637853 -0.13965425
0.7215469 0.36077344 0.46551412 -0.395687 -0.9892175 -0.7099091 0.069827124 0.59353054
0.3491356 -0.22111921 0.25603276 0.023275707 -0.24439493 -0.16292995 -0.24439493 1.0008554
0.5004277 0.73318475 -0.6982712 -1.1288718 -0.9892175 0.22111921 0.6168062 0.4538763
-0.1745678 0.40732488 -0.09310283 -0.13965425 -0.058189265 -0.31422204 0.76809835 0.1978435
0.5237034 -0.6168062 -0.83792543 -0.64008194 0.10474068 0.3724113 0.3491356 -0.16292995
0.069827124 0.034913562 0.10474068 0.058189265 -0.11637853 0.41896272 -0.11637853 0.20948136
-0.23275706 -0.48878986 -0.2793085 -0.011637853 0.10474068 0.3258599 0.081464976 0.13965425
0.023275707 -0.069827124 -0.23275706 -0.22111921 0.046551414 -0.5469791 -0.3025842 0.83792543
0.3724113 0.51206553 -0.36077344 -0.011637853 -0.18620566 -0.20948136 0.13965425 -0.1978435
0.43060058 0.7099091 0.558617 -0.87283903 -1.0590447 -0.86120117 0.3491356 -0.18620566
0.011637853 0.558617 0.22111921 0.33749774 -0.3724113 0.058189265 -0.16292995 0.0
0.43060058 0.25603276 0.40732488 0.77973616 0.77973616 -1.2568882 -1.501283 -1.1405096
0.6633577 0.1512921 0.4538763 0.11637853 0.40732488 0.1512921 -0.48878986 -0.3724113
-0.51206553 0.58189267 0.6284441 0.64008194 -0.09310283 0.023275707 -0.046551414 -0.09310283
-0.68663335 -0.11637853 -0.18620566 0.13965425 -0.22111921 0.046551414 0.1978435 -0.023275707
-0.20948136 0.011637853 0.023275707 0.13965425 0.46551412 0.3025842 -0.046551414 -0.3258599
-0.16292995 0.023275707 -0.011637853 0.10474068 0.29094633 -0.058189265 -0.1978435 0.7564605
0.011637853 -0.41896272 0.53534126 -0.13965425 -0.41896272 0.1512921 0.069827124 0.0
0.1512921 -0.034913562 -0.046551414 0.33749774 -0.011637853 -0.41896272 0.58189267 -0.081464976
-0.38404918 0.09310283 -0.1745678 -0.1978435 -0.41896272 0.034913562 0.12801638 0.11637853
00000000: 9696 9b7e 8f89 9193 7f8d 897f a9a4 95a7
00000010: 9496 a692 9e82 7179 8f7a 84ae a7aa 9289
00000020: 7ea1 9595 9b89 90a1 9590 a09f a095 9d8f
00000030: 978e 8b98 9a91 a49e a274 8d88 93a4 968a
00000040: 999e 9aa0 a89e a5a7 7d9d 9e85 9b91 80a0
00000050: 99ac 919f 9160 7d82 ac9e 8ea2 8f7b 9386
00000060: d0b1 ba70 3d55 98c5 b07f a894 7d84 7de8
00000070: bdd1 5631 3da5 c7b9 83b5 8a86 8d77 d4a3
00000080: bf5d 4a5b 9bb2 b084 9895 9b97 88b6 88a4
00000090: 7e68 7a91 9bae 999e 948c 7e7f 9663 78da
000000a0: b2be 7391 8280 9e81 b7cf c247 3748 b082
000000b0: 93c2 a5af 7297 8492 b7a8 b5d5 d526 1130
000000c0: cb9f b99c b59f 6872 66c4 c8c9 8a94 8e8a
000000d0: 5788 829e 7f96 a390 8093 949e baac 8e76
000000e0: 8494 919b ab8d 81d3 936e c086 6e9f 9892
000000f0: 9f8f 8eaf 916e c48b 719a 8381 6e95 9d9c

CifarNet/conv2/weights_quant/FakeQuantWithMinMaxVars u1 [32, 5, 5, 32] scale=0.0063163475 zero_point=131
0.10106156 0.18317407 0.0063163475 -0.10737791 0.20843947 -0.08842886 -0.13895965 0.05684713
-0.30950102 -0.05053078 0.11369426 0.0063163475 -0.21475582 -0.09474521 -0.037898086 -0.1326433
0.037898086 0.018949043 0.0 -0.12632695 0.0 -0.1200106 0.06947982 0.05684713
0.012632695 -0.18317407 -0.063163474 -0.15159234 -0.02526539 -0.037898086 0.018949043 0.0063163475
0.018949043 0.2400212 -0.037898086 -0.17054138 -0.02526539 -0.12632695 -0.1326433 -0.02526539
-0.11369426 0.0 0.17054138 -0.05684713 -0.34739912 -0.02526539 -0.05684713 -0.04421443
-0.037898086 -0.1200106 0.037898086 0.063163474 -0.290552 0.1200106 -0.1326433 -0.10106156
0.10737791 -0.018949043 -0.16422504 -0.12632695 0.012632695 -0.1579087 -0.02526539 0.02526539
-0.04421443 0.2526539 -0.031581737 -0.1579087 0.0063163475 -0.13895965 -0.12632695 -0.07579617
0.18949042 0.02526539 0.13895965 -0.012632695 -0.30950102 0.02526539 -0.012632695 -0.09474521
-0.13895965 0.06947982 0.037898086 0.15159234 -0.0063163475 0.08211252 -0.031581737 -0.018949043
0.012632695 -0.05684713 -0.19580677 0.04421443 0.05684713 -0.08842886 -0.0063163475 0.07579617
-0.012632695 0.10106156 -0.012632695 0.012632695 0.1200106 -0.063163474 -0.12632695 -0.012632695
0.145276 0.063163474 -0.0063163475 0.063163474 -0.10737791 -0.10106156 0.07579617 0.018949043
-0.09474521 0.012632695 -0.06947982 0.145276 0.063163474 -0.063163474 -0.06947982 0.012632695
-0.08211252 -0.037898086 0.10106156 0.30950102 0.04421443 -0.09474521 0.05684713 0.08842886
0.08842886 0.05684713 -0.018949043 -0.05053078 0.19580677 -0.09474521 -0.09474521 -0.07579617
-0.12632695 -0.05053078 0.20843947 0.13895965 -0.018949043 -0.063163474 0.02526539 0.0
-0.1579087 -0.06947982 -0.018949043 0.17054138 0.06947982 -0.037898086 0.13895965 0.018949043
-0.018949043 -0.10737791 0.031581737 0.20212312 -0.08842886 -0.012632695 0.10106156 0.1200106
0.018949043 0.23370486 0.02526539 -0.12632695 0.1326433 0.18949042 -0.19580677 -0.018949043
-0.41056257 -0.02526539 0.05684713 0.063163474 -0.08211252 -0.17054138 -0.10106156 0.037898086
0.1200106 0.0063163475 0.05684713 0.018949043 0.1326433 -0.1326433 0.17054138 0.063163474
0.145276 -0.1200106 -0.05053078 -0.15159234 0.1579087 0.031581737 0.04421443 -0.22107217
-0.05684713 0.08842886 -0.07579617 -0.04421443 -0.0063163475 0.0 -0.11369426 0.05053078
-0.0063163475 0.07579617 -0.018949043 0.018949043 -0.10106156 -0.11369426 -0.10737791 0.012632695
-0.0063163475 -0.0063163475 0.031581737 -0.1326433 -0.19580677 -0.1326433 -0.36634815 0.0063163475
0.07579617 -0.05053078 -0.08842886 -0.08842886 0.012632695 -0.10106156 -0.02526539 -0.06947982
-0.15159234 -0.037898086 0.031581737 -0.018949043 -0.18949042 0.04421443 0.012632695 0.0063163475
0.46740973 0.18949042 0.02526539 -0.10106156 -0.23370486 0.08211252 -0.08842886 0.12632695
-0.10106156 0.031581737 -0.21475582 -0.08211252 -0.08211252 -0.09474521 -0.18949042 0.08211252
-0.0063163475 -0.10737791 -0.0063163475 0.32845008 0.06947982 -0.15159234 -0.018949043 0.0063163475
00000000: 93a0 8472 a475 6d8c 527b 9584 6174 7d6e
00000010: 8986 836f 8370 8e8c 8566 796b 7f7d 8684
00000020: 86a9 7d68 7f6f 6e7f 7183 9e7a 4c7f 7a7c
00000030: 7d70 898d 5596 6e73 9480 696f 856a 7f87
00000040: 7cab 7e6a 846d 6f77 a187 9981 5287 8174
00000050: 6d8e 899b 8290 7e80 857a 648a 8c75 828f
00000060: 8193 8185 9679 6f81 9a8d 828d 7273 8f86
00000070: 7485 789a 8d79 7885 767d 93b4 8a74 8c91
00000080: 918c 807b a274 7477 6f7b a499 8079 8783
00000090: 6a78 809e 8e7d 9986 8072 88a3 7581 9396
000000a0: 86a8 876f 98a1 6480 427f 8c8d 7668 7389
000000b0: 9684 8c86 986e 9e8d 9a70 7b6b 9c88 8a60
000000c0: 7a91 777c 8283 718b 828f 8086 7371 7285
000000d0: 8282 886e 646e 4984 8f7b 7575 8573 7f78
000000e0: 6b7d 8880 658a 8584 cda1 8773 5e90 7597
000000f0: 7388 6176 7674 6590 8272 82b7 8e6b 8084

CifarNet/conv3/weights_quant/FakeQuantWithMinMaxVars u1 [64, 5, 5, 32] scale=0.003875051 zero_point=127
-0.100751325 0.046500612 -0.08525112 0.08525112 -0.027125357 0.023250306 0.0 -0.027125357
-0.015500204 -0.015500204 0.065875866 -0.054250713 -0.04262556 -0.03875051 0.03875051 -0.03875051
0.019375255 0.07362597 0.015500204 -0.22475295 0.08137607 -0.03487546 -0.015500204 -0.011625153
-0.019375255 0.112376474 0.011625153 -0.019375255 -0.023250306 -0.04262556 -0.12787668 -0.15887709
-0.093001224 0.2053777 -0.17050225 -0.027125357 -0.07750102 -0.13175173 0.100751325 0.13950184
0.0 0.10850143 -0.10850143 0.10462637 -0.112376474 0.07750102 0.13950184 -0.011625153
0.18212739 -0.003875051 -0.11625153 -0.13175173 0.058125764 -0.100751325 0.120126575 0.07362597
-0.08912617 -0.07750102 0.0 -0.062000815 0.10850143 -0.120126575 -0.14337689 -0.2751286
-0.15887709 0.003875051 -0.062000815 -0.07750102 -0.17050225 -0.058125764 0.08525112 0.07750102
-0.07362597 0.12400163 -0.17825234 0.058125764 -0.10462637 -0.058125764 0.023250306 0.046500612
0.306129 -0.08525112 -0.120126575 -0.031000407 -0.100751325 0.12787668 0.112376474 0.11625153
-0.023250306 -0.12400163 0.011625153 -0.054250713 0.16662718 -0.20925274 -0.24800326 -0.058125764
-0.112376474 -0.08912617 0.07362597 -0.046500612 -0.10850143 -0.031000407 -0.08912617 0.027125357
0.0 0.04262556 -0.14337689 -0.17050225 0.0 -0.100751325 0.015500204 -0.011625153
0.062000815 -0.003875051 0.07750102 0.10462637 0.003875051 0.17825234 0.015500204 -0.12787668
0.054250713 0.015500204 0.07750102 -0.023250306 0.050375663 -0.007750102 -0.13950184 -0.046500612
-0.046500612 -0.10850143 0.08912617 -0.07750102 -0.058125764 -0.023250306 -0.050375663 0.04262556
-0.12400163 -0.023250306 -0.14725193 -0.04262556 -0.054250713 -0.12787668 0.08912617 -0.031000407
-0.03487546 0.112376474 0.08912617 0.14337689 0.054250713 -0.007750102 -0.050375663 -0.019375255
0.003875051 -0.015500204 0.14337689 -0.13562678 0.03875051 0.019375255 -0.06975092 -0.023250306
-0.04262556 0.04262556 -0.093001224 -0.04262556 -0.058125764 -0.14337689 0.058125764 0.10462637
0.07362597 0.10462637 0.08137607 -0.100751325 -0.04262556 0.03875051 0.023250306 -0.03875051
0.015500204 0.027125357 -0.07362597 -0.08137607 0.12400163 -0.027125357 -0.015500204 0.058125764
-0.019375255 0.046500612 0.08137607 -0.011625153 0.007750102 -0.031000407 -0.08137607 -0.13950184
-0.15112698 0.112376474 -0.07750102 -0.15112698 -0.007750102 -0.08912617 -0.08525112 0.18212739
-0.03875051 0.062000815 -0.003875051 0.011625153 -0.031000407 -0.015500204 0.065875866 0.027125357
0.2053777 0.10850143 -0.031000407 -0.17050225 0.093001224 -0.093001224 -0.027125357 -0.18212739
-0.08525112 -0.027125357 -0.065875866 0.054250713 -0.054250713 -0.15887709 -0.065875866 -0.09687627
-0.046500612 -0.03487546 0.007750102 -0.2131278 -0.10462637 0.031000407 -0.08912617 0.0
-0.015500204 0.003875051 -0.058125764 -0.06975092 -0.019375255 -0.023250306 -0.06975092 0.065875866
0.15112698 0.054250713 -0.06975092 0.120126575 -0.06975092 0.06975092 -0.003875051 -0.11625153
-0.054250713 -0.031000407 0.0 0.062000815 -0.023250306 -0.06975092 -0.15500204 -0.03875051
00000000: 658b 6995 7885 7f78 7b7b 9071 7475 8975
00000010: 8492 8345 9476 7b7c 7a9c 827a 7974 5e56
00000020: 67b4 5378 6b5d 99a3 7f9b 639a 6293 a37c
00000030: ae7e 615d 8e65 9e92 686b 7f6f 9b60 5a38
00000040: 5680 6f6b 5370 9593 6c9f 518e 6470 858b
00000050: ce69 6077 65a0 9c9d 795f 8271 aa49 3f70
00000060: 6268 9273 6377 6886 7f8a 5a53 7f65 837c
00000070: 8f7e 939a 80ad 835e 8d83 9379 8c7d 5b73
00000080: 7363 966b 7079 728a 5f79 5974 715e 9677
00000090: 769c 96a4 8d7d 727a 807b a45c 8984 6d79
000000a0: 748a 6774 705a 8e9a 929a 9465 7489 8575
000000b0: 8386 6c6a 9f78 7b8e 7a8b 947c 8177 6a5b
000000c0: 589c 6b58 7d68 69ae 758f 7e82 777b 9086
000000d0: b49b 7753 9767 7850 6978 6e8d 7156 6e66
000000e0: 7376 8148 6487 687f 7b80 706d 7a79 6d90
000000f0: a68d 6d9e 6d91 7e61 7177 7f8f 796d 5775

CifarNet/logits/weights_quant/FakeQuantWithMinMaxVars/transpose u1 [10, 1024] scale=0.0025299448 zero_point=101
-0.09107801 -0.0050598895 -0.045539007 0.08601812 0.04300906 -0.015179669 -0.04806895 -0.04300906
0.03288928 0.040479116 0.020239558 0.015179669 -0.040479116 -0.22263514 0.0075898343 0.0733684
-0.083488174 0.0025299448 -0.017709613 -0.108787626 -0.035419226 0.017709613 -0.06324862 -0.11384752
-0.020239558 -0.015179669 0.017709613 -0.060718674 0.060718674 0.14420685 -0.11384752 0.027829392
0.020239558 0.025299449 0.050598897 -0.012649724 0.040479116 0.07083845 -0.08095823 -0.15432663
-0.0050598895 -0.012649724 -0.103727736 0.010119779 0.0733684 -0.06830851 -0.12143735 0.050598897
-0.03794917 -0.083488174 0.050598897 0.0050598895 0.11637746 -0.045539007 -0.030359337 -0.08095823
0.050598897 -0.05312884 -0.05312884 0.025299449 0.13155712 -0.022769503 0.05312884 -0.05312884
-0.030359337 -0.025299449 -0.09107801 0.093607955 -0.0025299448 -0.017709613 -0.045539007 0.012649724
0.027829392 -0.030359337 -0.055658784 0.083488174 -0.04806895 -0.108787626 -0.03288928 0.098667845
0.025299449 0.03794917 -0.10625768 -0.083488174 -0.0050598895 -0.07083845 -0.027829392 -0.17709613
-0.08095823 0.06830851 0.05818873 -0.07842829 0.08095823 0.040479116 0.0050598895 0.010119779
0.027829392 0.04300906 -0.04806895 0.020239558 0.045539007 0.035419226 0.045539007 -0.03288928
0.010119779 0.022769503 0.012649724 -0.07842829 -0.012649724 -0.0075898343 -0.10625768 0.088548064
-0.035419226 0.012649724 0.0050598895 -0.0050598895 -0.022769503 -0.017709613 -0.13408707 0.025299449
0.020239558 -0.030359337 -0.055658784 -0.0050598895 0.030359337 0.025299449 -0.027829392 0.10625768
-0.0050598895 -0.030359337 -0.07083845 0.13155712 0.0075898343 0.03794917 -0.035419226 0.0075898343
-0.030359337 0.0025299448 -0.07083845 -0.0050598895 -0.098667845 -0.11131757 0.083488174 0.05312884
0.11637746 0.035419226 -0.03794917 0.0075898343 0.0050598895 -0.13661702 -0.06830851 0.015179669
-0.14926673 0.12649724 0.0050598895 -0.0733684 0.13661702 -0.04300906 0.045539007 0.108787626
0.045539007 -0.050598897 -0.035419226 -0.025299449 0.012649724 0.103727736 0.0733684 0.050598897
-0.012649724 0.05312884 0.03288928 -0.015179669 -0.027829392 -0.012649724 -0.06324862 0.040479116
0.020239558 0.035419226 0.012649724 0.05818873 -0.022769503 -0.04806895 -0.17203625 0.015179669
0.0050598895 -0.030359337 -0.06324862 -0.020239558 0.045539007 -0.022769503 -0.017709613 0.12902719
0.03288928 -0.027829392 -0.088548064 0.12902719 0.010119779 0.035419226 0.015179669 -0.027829392
0.05312884 0.0025299448 -0.030359337 -0.0050598895 0.027829392 -0.16697635 0.083488174 0.093607955
0.103727736 -0.017709613 -0.0050598895 -0.12396729 0.04806895 -0.103727736 -0.11890741 -0.101197794
-0.15938652 0.06830851 0.015179669 0.025299449 0.108787626 0.045539007 -0.030359337 -0.083488174
0.07842829 -0.055658784 -0.08095823 0.012649724 0.045539007 0.08095823 -0.06830851 0.05818873
-0.0075898343 0.017709613 0.08601812 0.017709613 0.012649724 0.0050598895 -0.11637746 0.020239558
0.06830851 0.09107801 -0.07842829 0.055658784 -0.040479116 -0.101197794 -0.16444641 0.035419226
-0.035419226 -0.022769503 0.108787626 -0.020239558 0.03288928 -0.025299449 -0.017709613 -0.010119779
00000000: 4163 5387 765f 5254 7275 6d6b 550d 6882
00000010: 4466 5e3a 576c 4c38 5d5f 6c4d 7d9e 3870
00000020: 6d6f 7960 7581 4528 6360 3c69 824a 3579
00000030: 5644 7967 9353 5945 7950 506f 995c 7a50
00000040: 595b 418a 645e 536a 7059 4f86 523a 588c
00000050: 6f74 3b44 6349 5a1f 4580 7c46 8575 6769
00000060: 7076 526d 7773 7758 696e 6a46 6062 3b88
00000070: 576a 6763 5c5e 306f 6d59 4f63 716f 5a8f
00000080: 6359 4999 6874 5768 5966 4963 3e39 867a
00000090: 9373 5668 672f 4a6b 2a97 6748 9b54 7790
000000a0: 7751 575b 6a8e 8279 607a 725f 5a60 4c75
000000b0: 6d73 6a7c 5c52 216b 6759 4c5d 775c 5e98
000000c0: 725a 4298 6973 6b5a 7a66 5963 7023 868a
000000d0: 8e5e 6334 783c 363d 2680 6b6f 9077 5944
000000e0: 844f 456a 7785 4a7c 626c 876c 6a67 376d
000000f0: 8089 467b 553d 2473 575c 905d 725b 5e61
