middleware/eiq/tensorflow-lite/examples/adt/adt_train/adt_model.tflite (tflite, 5912 bytes, 8 tensors)

dense_1/MatMul_bias f4 [16]
0	0x3eabe6b2	0.33574444
1	0xbf06cf26	-0.52659833
2	0x3c4cf7bc	0.012510236
3	0xbe45d029	-0.19317688
4	0x3e7be10c	0.24597567
5	0x3d075bbc	0.03304647
6	0x3e78a897	0.24283062
7	0xbe402696	-0.1876472
8	0x3dafb498	0.085793674
9	0xbe14c07b	-0.1452655
10	0xbe1b3dd1	-0.151603
11	0x3eb1763a	0.34660512
12	0xbd8b6a8e	-0.06807433
13	0xbef1e203	-0.47242746
14	0xbe779977	-0.24179636
15	0x3da5398e	0.08067618

dense_1/kernel/transpose f4 [16, 30]
0	0xbe6524f6	-0.2237738
1	0x3dea7282	0.11447622
2	0x3d831660	0.06400752
3	0xbe9b6abd	-0.30354872
4	0xbef152d0	-0.47133493
5	0xbd934d7e	-0.07192515
6	0x3eed00cc	0.4628967
7	0x3f14eb19	0.5817123
8	0x3d6e0af7	0.058115926
9	0xbe22f3a7	-0.15913258
10	0x3c1e07eb	0.0096454425
11	0xbe3dcf76	-0.18536171
12	0xbe73f3ea	-0.23823515
13	0xbebd2dee	-0.36949104
14	0xbe228560	-0.15871191
15	0xbd87e19a	-0.06634827
16	0x3e9c9387	0.30581304
17	0x3d99b1c7	0.075046115
18	0xbeabbe44	-0.335436
19	0x3db0a68d	0.08625517
20	0xbea6756d	-0.32511464
21	0x3e43ec3d	0.19133087
22	0xbeb58b78	-0.3545797
23	0x3d91d5ae	0.07120834
24	0xbe6976c8	-0.22799218
25	0xbddc2998	-0.10750121
26	0xbe8f1f37	-0.27953503
27	0xbee5aaee	-0.44856972
28	0x3e5ad761	0.21371223
29	0x3d7a6e89	0.06114057
30	0xbe1f7350	-0.15571332
31	0xbc9bb1f1	-0.019005748
32	0xbebe0be7	-0.37118456
33	0x3e4f02ad	0.20215864
34	0x3c87d3d9	0.016580509
35	0xbdd9b266	-0.1062973
36	0xbd80b472	-0.06284417
37	0x3c4f0aa0	0.012636811
38	0x3ee41068	0.44543767
39	0xbf3801f4	-0.7187798
40	0xbf110fbf	-0.5666465
41	0xbe960ba6	-0.29305762
42	0x3d8d41a9	0.06897289
43	0xbefc8422	-0.4931956
44	0xbd57bb17	-0.052668657
45	0xbde7ba3b	-0.113148175
46	0x3e30561d	0.1722035
47	0xbdbdfbfd	-0.092765786
48	0xbe4b0e2c	-0.19829625
49	0xbea67545	-0.32511345
50	0xbd43e7a4	-0.04782833
51	0xbc864ede	-0.016395029
52	0xbf1b4e90	-0.6066675
53	0x3e77ba5b	0.24192183
54	0xbe932975	-0.28742567
55	0x3d06c73f	0.03290486
56	0x3f1bf76a	0.609244
57	0xbeb0c6c5	-0.3452665
58	0x3def688d	0.11689863
59	0x3da97481	0.082741745
60	0xbe5f64e4	-0.2181583
61	0x3c41fe2d	0.011840385
62	0xbf05ecc0	-0.52314377
63	0x3e699856	0.22812018
64	0x3d171f76	0.036895238
65	0x3f14b582	0.5808946
66	0x3e5515c8	0.2080909
67	0x3dbb6ccb	0.0915161
68	0x3ed69c26	0.41916007
69	0x3e121fb5	0.14269908
70	0xbe723c69	-0.23655857
71	0x3e855faa	0.26049548
72	0x3e5df2fa	0.2167472
73	0x3e08ba1c	0.13352245
74	0xbe2349ab	-0.15946071
75	0x3e7852ed	0.24250384
76	0x36c4c778	5.8644764e-06
77	0x3e19b27c	0.15009493
78	0xbe45c2d3	-0.19312601
79	0xbdf333df	-0.11875128
80	0xbeaa5241	-0.3326588
81	0x3e4f642a	0.20253053
82	0x3ece9074	0.40344584
83	0x3cff27df	0.031146942
84	0x3e05277e	0.13003346
85	0xbebc2518	-0.3674705
86	0x3ebc2ab3	0.36751327
87	0x3f02a743	0.5103647
88	0x3b96fcd7	0.0046077776
89	0xbe371543	-0.17879204
90	0xbdbd7fdf	-0.09252905
91	0xbcdc9f02	-0.02693129
92	0x3e1e8c5e	0.15483233
93	0x3e2db1fa	0.16962424
94	0xbd6b28f7	-0.057412114
95	0xbdeba932	-0.11506881
96	0x3e86960d	0.26286355
97	0x3f43fc02	0.7655641
98	0xbec4f53b	-0.38468346
99	0x3f16b54d	0.58870393
100	0xbe747be0	-0.2387538
101	0x3b83f020	0.004026428
102	0xbeb9bda3	-0.36277494
103	0xbdc69f06	-0.096983
104	0xbbaff604	-0.0053699035
105	0x3e0557b9	0.13021745
106	0xbeb565dd	-0.35429278
107	0x3d24872a	0.040167965
108	0x3eafbcb7	0.34323665
109	0x3eb9b6e8	0.3627236
110	0xbda19c37	-0.07891124
111	0x3e54db81	0.20786859
112	0x3e092beb	0.1339566
113	0xbdc4421a	-0.0958292
114	0xbda16657	-0.07880848
115	0xbf1bbecb	-0.60838
116	0xbdc423fb	-0.09577175
117	0x3e15a939	0.14615335
118	0xbe97574e	-0.29558796
119	0xbdd0c571	-0.10193909
120	0xbc3ee7c1	-0.011651934
121	0x3e6c9f94	0.23107749
122	0x3cbc4270	0.022980899
123	0xbe4ccfc8	-0.20001137
124	0x3eb380d8	0.35059237
125	0x3c4e5a56	0.01259478
126	0xbd90b203	-0.07065203
127	0xbd10b5c2	-0.035329588
128	0xbe37720c	-0.17914599
129	0xbe05d452	-0.13069275
130	0x3e9be98d	0.30451623
131	0xbd1e6a22	-0.038675435
132	0x3ef3664a	0.47538978
133	0xbd5f7d0c	-0.054562613
134	0x3da6374d	0.081160165
135	0x3d692a31	0.056925002
136	0x3ecdab81	0.4016991
137	0xbd9122d1	-0.07086719
138	0x3e69703c	0.2279672
139	0xbd4c7793	-0.049918722
140	0x3e0fb281	0.14032938
141	0xbdf78574	-0.12086001
142	0xbea412a1	-0.32045463
143	0xbf0269b1	-0.5094252
144	0x3d8f5c09	0.06999976
145	0x3ec10df6	0.37705964
146	0xbddbcdd5	-0.10732619
147	0x3f13fefe	0.5781096
148	0xbeb184c7	-0.34671614
149	0x3cbdbd8a	0.023161668
150	0xbdd683d5	-0.10474364
151	0x3dd21c40	0.102592945
152	0x3e3bbd6e	0.1833398
153	0x3dab0760	0.08351016
154	0xbeb9c5b3	-0.36283645
155	0x3e0c2afa	0.1368827
156	0xbe640601	-0.22267915
157	0x3defcb81	0.11708737
158	0x3ddf86be	0.10914372
159	0x3dde12cb	0.10843428
160	0xbe64ef50	-0.22356915
161	0xbc3d7b38	-0.011565022
162	0x3e7b4ee7	0.24541818
163	0xbdb3b081	-0.087739
164	0xbcb3ba45	-0.021939406
165	0x3df7043e	0.12061356
166	0x3e2dbae8	0.1696583
167	0xbed1b4fe	-0.409584
168	0xbea0795b	-0.31342587
169	0xbeb11a16	-0.34590214
170	0x3dfdac5d	0.12386391
171	0xbe6ae812	-0.2294009
172	0x3ed7d4fe	0.42154688
173	0x3f3a175b	0.7269189
174	0x3e869d80	0.26292038
175	0xbd0df946	-0.034661554
176	0xbe35cb0e	-0.1775324
177	0xbdc69242	-0.09695865
178	0xbe333962	-0.17502359
179	0x3dc3e9e7	0.09566098
180	0xbe1dd114	-0.15411788
181	0x3eb90644	0.36137593
182	0xbe7c6ff7	-0.24652086
183	0x3f423729	0.7586542
184	0xbcd0063e	-0.025393602
185	0xbd1abea2	-0.037779458
186	0x3f056267	0.52103275
187	0x3dc7f9e3	0.09764459
188	0xbedafc44	-0.42770588
189	0xbe04737c	-0.12934679
190	0xbd87e720	-0.066358805
191	0x3c426c46	0.011866635
192	0x3c980701	0.018558027
193	0xbe2116e1	-0.15731384
194	0x3beae39d	0.007168247
195	0xbea6c88b	-0.32574877
196	0xbe474ae7	-0.19462167
197	0xbc7b5fa0	-0.015342623
198	0x3e837e8c	0.25682485
199	0x3deb7963	0.11497762
200	0x3d4c869b	0.049933057
201	0xbec4f54d	-0.384684
202	0xbe92a058	-0.28637958
203	0x3d781473	0.060566377
204	0x3e4d104f	0.20025752
205	0x3e4fb25c	0.20282882
206	0x3e3dfcaf	0.18553422
207	0xbe8e8728	-0.2783749
208	0x3e1fd9b7	0.15610395
209	0x3e7df2e4	0.24799687
210	0x3d1ee613	0.038793635
211	0xbd76cf59	-0.060256336
212	0xbd95aa8d	-0.073079206
213	0xbe6cf08e	-0.2313864
214	0x3f43dba7	0.7650704
215	0xbe124790	-0.14285111
216	0x3dd6c85d	0.10487435
217	0xbeff3388	-0.49844003
218	0x3f3cf9c4	0.7381861
219	0xbef4e448	-0.47830415
220	0xbe01e813	-0.12686186
221	0xbd936d69	-0.07198603
222	0xbcb12d12	-0.021627937
223	0x3c063007	0.008190162
224	0xbf05cb68	-0.522635
225	0xbf1cddd3	-0.61275977
226	0xbeea6d9b	-0.45786747
227	0xbe6b6dcd	-0.22991104
228	0xbe9c04e6	-0.30472487
229	0x3f29e56b	0.6636569
230	0x3e80dcb9	0.25168398
231	0xbe4a75b3	-0.19771461
232	0x3e9d1e03	0.3068696
233	0xbe864930	-0.26227713
234	0xbe491a72	-0.19638994
235	0xbe344897	-0.17605816
236	0xbee06f75	-0.43835035
237	0xbf03558f	-0.5130243
238	0xbe72095a	-0.2363638
239	0x3caee7b6	0.021350723
240	0xbd414360	-0.047183394
241	0x3e27317d	0.16327472
242	0x3eefd9b1	0.46845773
243	0x3e862130	0.26197195
244	0xbd1edf65	-0.038787264
245	0x3ec923b9	0.39285067
246	0x3e649cd9	0.22325458
247	0x3ebef971	0.37299684
248	0x3dc99090	0.09842026
249	0x3d0a9543	0.033833753
250	0x3df52b08	0.11971098
251	0x3e2f09cd	0.17093582
252	0x3bbdf25e	0.0057967147
253	0xbedd73fc	-0.43252552
254	0xbecdf34b	-0.4022468
255	0x3ef93eee	0.48680824

dense_2/MatMul_bias f4 [8]
0	0x3e75a5a8	0.23988974
1	0x3e28a114	0.16467696
2	0x3e7b876c	0.24563378
3	0x3b7ce572	0.0038588909
4	0xbda17f9a	-0.07885666
5	0xbe419c1a	-0.18907204
6	0xbc320d96	-0.010867497
7	0xbe9c3038	-0.30505538

dense_2/kernel/transpose f4 [8, 16]
0	0xbe0b3aa1	-0.13596584
1	0x3e39b0bf	0.1813383
2	0xbe8e1e52	-0.27757508
3	0xbeb500d6	-0.353522
4	0x3e65827b	0.22413056
5	0xbe871b42	-0.26387984
6	0x3e7a90ee	0.24469349
7	0xbeb10b4e	-0.34578937
8	0xbdc94ba4	-0.098288804
9	0x3e794825	0.24343927
10	0x3eea334b	0.45742258
11	0x3df2dd3e	0.11858605
12	0x3eb90aba	0.36140996
13	0xbe65b08e	-0.22430632
14	0x3ea9bb3a	0.33150655
15	0xbe960e69	-0.2930787
16	0x3e2bbe22	0.16771749
17	0x3eae148d	0.34000054
18	0xbcf2fc52	-0.029661331
19	0x3eb6d153	0.35706577
20	0x3e92a214	0.2863928
21	0xbc27af83	-0.010234716
22	0xbeb7b093	-0.35876903
23	0x3de03205	0.109470405
24	0x3e1aee29	0.15129913
25	0xbe0c26f5	-0.13686736
26	0xbe1ce898	-0.15323102
27	0xbe2c0653	-0.16799287
28	0xbdde3863	-0.10850599
29	0x3e3e66e1	0.18593933
30	0x3f0d5603	0.5520937
31	0xbe1f12ba	-0.15534487
32	0x3f295bc1	0.6615563
33	0x3e66cdcc	0.22539443
34	0x3f2b4eeb	0.66917294
35	0xbea87573	-0.32902107
36	0x3dbf7fce	0.09350549
37	0xbd80dcc3	-0.06292107
38	0x3f32820e	0.697297
39	0x3e496e9a	0.19671097
40	0xbef3b759	-0.4760082
41	0x3ea27e4f	0.3173699
42	0x3eb07dfb	0.34471115
43	0x3eca203d	0.3947772
44	0x3d36023d	0.04443573
45	0x3f108ee8	0.5646806
46	0x3d127a91	0.03576142
47	0xbe63f961	-0.22263099
48	0xbe134dc3	-0.14385132
49	0xbdfc24c2	-0.123116985
50	0xbdbc7c72	-0.092034236
51	0x3e488586	0.19582185
52	0x3e929458	0.28628802
53	0x3ed35485	0.4127542
54	0xbedf67b8	-0.4363382
55	0xbd449964	-0.047997847
56	0xbe7b4108	-0.24536526
57	0xbe10a5aa	-0.14125696
58	0xbe81d32a	-0.25356418
59	0x3ec22adc	0.37923324
60	0x3daa978b	0.08329686
61	0x3e7cde12	0.24694088
62	0x3ecf7ee0	0.40526485
63	0xbe5f1d21	-0.21788456
64	0x3a0f1037	0.0005457433
65	0x3dcdaca3	0.100426935
66	0xbdd24b33	-0.10268249
67	0x3efe7940	0.4970188
68	0x3f159d7b	0.5844342
69	0xbe276e70	-0.16350722
70	0xbca62da7	-0.02028544
71	0x3eb36876	0.35040635
72	0xbec08d8f	-0.37608
73	0x3e3889f2	0.18021372
74	0x3e100820	0.140656
75	0xbdd38cce	-0.10329591
76	0x3dcc9e86	0.099911734
77	0x3e5dc51d	0.21657224
78	0xbe737694	-0.23775703
79	0x3edd833d	0.4326419
80	0xbf0bfc60	-0.5468197
81	0x3f0414d6	0.51594293
82	0x3ee05cf8	0.4382093
83	0x3d6ffceb	0.05859081
84	0x3e9f5dc7	0.31126234
85	0x3dcf9f59	0.10137815
86	0x3b0dc9d9	0.0021635203
87	0x3effe21b	0.49977192
88	0x3ecdf251	0.40223935
89	0xbeab2ec9	-0.33434132
90	0x3e899e49	0.26878574
91	0xbd9d0c81	-0.076684006
92	0xbe015c60	-0.12632895
93	0xbeafefcd	-0.3436264
94	0xbe235c30	-0.15953135
95	0x3ee3dd03	0.44504556
96	0xbcae0117	-0.021240754
97	0x3e1f7403	0.15571599
98	0x3e5be297	0.21473156
99	0x3d681944	0.05666472
100	0x3ec4fb79	0.38473108
101	0x3e1cb48d	0.1530325
102	0x3dac706b	0.084198795
103	0xbe198859	-0.14993419
104	0xbe4049f4	-0.18778211
105	0x3f083cbc	0.53217673
106	0xbec6e815	-0.3884894
107	0xbe8ee8c8	-0.27911973
108	0x3db402fa	0.0878963
109	0xbf1dbacb	-0.6161315
110	0x3e7b0b5d	0.24516053
111	0xbd8a1896	-0.06742971
112	0xbe30b125	-0.17255075
113	0xbe913e34	-0.2836777
114	0x3ea9f7cd	0.3319687
115	0xbee823bb	-0.4533976
116	0x3e683b20	0.22678804
117	0xbe318af8	-0.17338169
118	0xbb90da97	-0.004420589
119	0xbe38ae15	-0.18035157
120	0xbe67589f	-0.225924
121	0x3cfdc543	0.03097785
122	0x3dbfd39f	0.093665354
123	0xbeb4443e	-0.35208315
124	0xbec423ec	-0.38308656
125	0xbd7b41f9	-0.061342213
126	0xbe624d64	-0.22099835
127	0xbe82b891	-0.25531438

dense_3/MatMul_bias f4 [8]
0	0xbcba152e	-0.022715177
1	0x3e81da62	0.25361925
2	0xbe6d4124	-0.2316938
3	0x3e5b4ebc	0.21416754
4	0x3afa461a	0.0019094378
5	0xbda3012f	-0.0795921
6	0x3e0128a6	0.12613162
7	0x3e7b53ba	0.24543658

dense_3/kernel/transpose f4 [8, 8]
0	0x3f88a03b	1.0673898
1	0x3f6d5f6b	0.9272372
2	0x3e1a22a6	0.1505228
3	0xbf60837f	-0.8770065
4	0xbe167dc5	-0.14696415
5	0xbfccdffe	-1.6005857
6	0xbf818a76	-1.012038
7	0x3f2318cc	0.6370971
8	0x3dd6eb64	0.10494116
9	0xbd0e57ca	-0.03475169
10	0xbf4b45b2	-0.7940322
11	0x3f093b48	0.5360608
12	0x3f5d7672	0.8650886
13	0xbed24fd1	-0.4107652
14	0xbfbdf05c	-1.4838977
15	0xbf3ab99c	-0.7293947
16	0xbf8152e5	-1.0103422
17	0x3d3cb3d4	0.046069935
18	0x3db60b85	0.08888916
19	0xbedb39b8	-0.42817473
20	0xbe85952c	-0.26090372
21	0xbf3a28ed	-0.727187
22	0x3f6c137a	0.9221722
23	0xbf937096	-1.1518734
24	0xbf97cb79	-1.185897
25	0x3fd42df6	1.6576526
26	0x3d3ea371	0.04654259
27	0xbf915ce5	-1.1356474
28	0x3f0fbff8	0.56152296
29	0x3e5b362a	0.2140738
30	0xbec69705	-0.38787094
31	0x3fb10979	1.3831016
32	0x3ebeb06f	0.37243983
33	0x3fd59e3f	1.6688918
34	0xbee89eee	-0.45433754
35	0x3f9a9cde	1.2079122
36	0xbfc59090	-1.5434742
37	0x3e802dd7	0.25034973
38	0x3f2fd4ac	0.68683887
39	0x3f86a98a	1.0520489
40	0x3f55a32c	0.83452106
41	0x3f1a2384	0.6021044
42	0xbf8997a6	-1.0749404
43	0xbf5c587b	-0.8607251
44	0xbf77d5ef	-0.9681081
45	0x3f788061	0.9707089
46	0x3e3d3887	0.18478595
47	0xbf805167	-1.0024842
48	0xbecbe090	-0.39819765
49	0xbf34cb8d	-0.70623094
50	0x3f263a9d	0.64933187
51	0x3f2c1d8e	0.67232597
52	0xbfea19a8	-1.828908
53	0x3e4539e3	0.19260363
54	0xbfb75a77	-1.4324483
55	0x3e3a2561	0.18178321
56	0xbf520429	-0.820376
57	0xbfa2365f	-1.2672843
58	0xbff2d865	-1.8972288
59	0xbf38f122	-0.7224294
60	0xbfa0b12f	-1.2554072
61	0xbf53482e	-0.8253201
62	0x3d781395	0.06056555
63	0x3f2d8cb8	0.67792845

dense_4/MatMul_bias f4 [30]
0	0x3c9e81fc	0.01934909
1	0xbcbc1652	-0.022959862
2	0xbe095b73	-0.13413791
3	0xbda5a660	-0.08088374
4	0xbde3f602	-0.11130907
5	0xbd01a26c	-0.03164904
6	0xbe1cd4e7	-0.15315591
7	0x3e5d7255	0.21625645
8	0x3c5a0d59	0.013308846
9	0x3e59f75a	0.21285763
10	0x3e69c3f3	0.22828655
11	0xbec3d00c	-0.38244665
12	0x3f64a408	0.8931279
13	0xbec74c5f	-0.38925454
14	0xbc8096d1	-0.015696915
15	0x3e71e6ee	0.23623249
16	0xbc2197f5	-0.00986289
17	0x3f57bd5b	0.8427331
18	0xbef47b75	-0.4775044
19	0x3e8a1e55	0.26976267
20	0x3e01b460	0.12666464
21	0xbdfd7cef	-0.12377345
22	0x3e6e983e	0.23300263
23	0xbf39d098	-0.72583914
24	0x3e856a66	0.26057738
25	0xbdce3d3a	-0.10070272
26	0x3e2e1306	0.16999444
27	0x3d120e90	0.03565842
28	0xbda4314d	-0.08017216
29	0x3e1c5314	0.15266067

dense_4/kernel/transpose f4 [30, 8]
0	0x3f8859a7	1.065236
1	0x4018c3d3	2.3869522
2	0xbedee20a	-0.4353183
3	0xbf83ccb4	-1.0296845
4	0x406ea113	3.7285812
5	0x3f292267	0.6606812
6	0x3eb99561	0.3624678
7	0x3e8a4631	0.27006677
8	0x3e915970	0.28388548
9	0xbe8614de	-0.26187795
10	0x3eadb93d	0.33930388
11	0x3eab9ce2	0.3351813
12	0xbd24c6b8	-0.040228575
13	0xbeac5067	-0.33655092
14	0xbef01489	-0.46890667
15	0xbe1f3bb5	-0.1555012
16	0x3da05861	0.07829357
17	0x3e6d0e5e	0.23150012
18	0x3e74f4af	0.23921464
19	0xbe5c1aac	-0.2149455
20	0xbe4a9cd3	-0.19786386
21	0x3e353472	0.17695788
22	0xbed29573	-0.41129646
23	0x3eecd933	0.4625946
24	0xbd92befc	-0.07165334
25	0xbf986d44	-1.1908345
26	0xbdfae5bc	-0.122508496
27	0xbf5ae0b4	-0.8549912
28	0xbf35ecf6	-0.710647
29	0x3f566247	0.8374371
30	0x3e4980b4	0.19678003
31	0xbe6e0388	-0.23243535
32	0xbf93e941	-1.1555558
33	0x3f45818e	0.7715081
34	0xbfda0b66	-1.7034729
35	0x3f8051be	1.0024946
36	0x3f47ceba	0.78049815
37	0x3f8df014	1.1088891
38	0xbe724cb0	-0.23662066
39	0xbf83a3d4	-1.0284371
40	0x3f058e00	0.521698
41	0xc06eef85	-3.733369
42	0x3f28ed56	0.65987146
43	0x3fa0d83c	1.256599
44	0x3f9f073d	1.2424084
45	0xc03157c4	-2.7709818
46	0x4027bcf4	2.6209078
47	0xc03a136c	-2.9074354
48	0x3fbacfdd	1.4594685
49	0xbf7b0eb3	-0.98069304
50	0x3fc17b42	1.511574
51	0x3fa5f065	1.2963988
52	0xc05d40dc	-3.4570837
53	0x3f704909	0.9386144
54	0x3f921203	1.1411747
55	0x3f1cc06c	0.6123111
56	0x3f85d55a	1.0455735
57	0x3f2593f8	0.6467891
58	0x3ffdc653	1.9826149
59	0x3f61fafb	0.8827359
60	0xbc04966f	-0.008092507
61	0x3fa19de7	1.2626313
62	0x3e0e68cb	0.13907163
63	0xbf0332a2	-0.51249135
64	0xbf2a85bb	-0.66610307
65	0xbe2d1168	-0.16901171
66	0xbe91c48f	-0.28470275
67	0x3f5b5982	0.85683453
68	0x3ed8807f	0.42285535
69	0x3e913096	0.2835738
70	0x3f940f19	1.1567107
71	0xbf8d4f6d	-1.1039864
72	0xbe57ec40	-0.21086216
73	0x3fb40823	1.4064983
74	0x3f13c66e	0.57724655
75	0x3f239eae	0.63914
76	0x3f63ed42	0.890339
77	0xbff0725e	-1.8784902
78	0x3ee0793e	0.438425
79	0x3e9b6d75	0.30356947
80	0x3f3116c6	0.69175375
81	0x3dfa7583	0.12229445
82	0x3fb8b894	1.4431329
83	0xbede45a8	-0.43412519
84	0xbf94425c	-1.1582751
85	0xbfd6bb9c	-1.6776004
86	0xbe454625	-0.1926504
87	0x3f8eb677	1.1149434
88	0xc052f126	-3.2959685
89	0x4040f931	3.0152094
90	0x3f22a81c	0.63537765
91	0xc02efe99	-2.7342894
92	0xbfe3890f	-1.7776202
93	0x3fd2dc25	1.6473433
94	0xbf8299fc	-1.0203242
95	0xbf48d005	-0.7844241
96	0xc00aab37	-2.1667001
97	0xbf31ba95	-0.69425327
98	0xbd3e5b96	-0.046474062
99	0xbedca3e7	-0.43093798
100	0x3f8876ce	1.0661256
101	0xbf70c231	-0.9404631
102	0xbf3f98bc	-0.7484243
103	0xbeb137f3	-0.34612998
104	0xbe7367ec	-0.23770112
105	0xbed7681f	-0.42071626
106	0xbfd08321	-1.6290017
107	0xbf7af6a1	-0.98032576
108	0xbeac8376	-0.33694047
109	0xbf377f70	-0.7167883
110	0x3f27b27f	0.6550674
111	0x3ed9316b	0.42420515
112	0x3f698744	0.91222024
113	0x3d8f5187	0.06997972
114	0xbe057204	-0.13031775
115	0xbf2c9b33	-0.67424315
116	0x3e0bb598	0.13643491
117	0xbe87776e	-0.26458305
118	0x3e070a52	0.1318753
119	0xbf24a4c2	-0.643139
120	0xbdaf01b2	-0.08545245
121	0xbf5ba07a	-0.8579174
122	0xbf814a45	-1.010079
123	0xbddeb425	-0.108742036
124	0xbf42a3c3	-0.7603113
125	0x3fe4a342	1.7862322
126	0xbf88d417	-1.0689725
127	0x3e110c53	0.14164858
128	0xbe4a12ad	-0.19733687
129	0x3ed04632	0.40678555
130	0xbef632c5	-0.4808561
131	0x3f869be4	1.0516324
132	0x3fac82e0	1.347744
133	0x4017882a	2.3676858
134	0x3e520b6f	0.20512174
135	0xbf4fe36f	-0.8120641
136	0x4024dda0	2.576027
137	0x3ea501eb	0.32228026
138	0xc0596bb6	-3.3971992
139	0x4068c7f8	3.6372051
140	0x3ef83a42	0.48481947
141	0xbfbc9818	-1.4733915
142	0xbfc324fc	-1.5245662
143	0x3fa54f00	1.2914734
144	0x402febec	2.7487745
145	0x4028bc70	2.6365013
146	0xc00b3049	-2.174822
147	0xbf58621b	-0.845247
148	0xbfbecc0a	-1.4906018
149	0x3d799b4b	0.060939115
150	0x3f489c96	0.7836393
151	0xbe7e0a6b	-0.24808662
152	0xbf58c871	-0.8468085
153	0x3fa49b6b	1.285993
154	0x3f7c1e13	0.9848339
155	0x3fa8c2a1	1.3184396
156	0xbde35313	-0.110998295
157	0x3e02c6e3	0.12771182
158	0xbe4c824e	-0.19971582
159	0xbe91c3aa	-0.28469592
160	0xbea32e0f	-0.31871077
161	0xbc1c68c5	-0.009546463
162	0x3ec8faaf	0.39253756
163	0x3ef024e8	0.46903157
164	0xbf19c1c5	-0.60061294
165	0x3c593d38	0.013259225
166	0xbf90571e	-1.1276586
167	0x3fbadf74	1.4599442
168	0x3e954a67	0.29158327
169	0x3eb216d5	0.34783044
170	0x3f7021e0	0.9380169
171	0xbe58c25d	-0.21167894
172	0x3eb9bcef	0.36276957
173	0xbe99bed0	-0.3002839
174	0x3db8b553	0.0901896
175	0xbe2c5d63	-0.16832499
176	0xbf858d4c	-1.0433745
177	0xbe8e0075	-0.27734724
178	0xbe821659	-0.25407675
179	0xbf3eeaa0	-0.7457676
180	0xbe8da7a9	-0.27666977
181	0xbfc67480	-1.5504303
182	0xbe79eb7a	-0.24406233
183	0x3eaed5e9	0.34147575
184	0xbf789c5f	-0.97113603
185	0xbe33b495	-0.17549355
186	0x400af74c	2.1713438
187	0xc018a392	-2.3849835
188	0x3e621504	0.2207833
189	0x3ec88f1e	0.3917169
190	0x40769598	3.8528805
191	0x3fbf58c3	1.4948963
192	0xbf0b10b1	-0.54322344
193	0xc03b26f4	-2.9242525
194	0x3fc1aab0	1.5130215
195	0x3eb8f515	0.36124483
196	0x3fcce38d	1.6006943
197	0xbf71f10f	-0.9450845
198	0xc001dad3	-2.028981
199	0x40188a03	2.3834236
200	0x3e5527b9	0.20815934
201	0xbf4ec475	-0.8076852
202	0xbf383437	-0.71954674
203	0xbf62b240	-0.8855324
204	0xbe6e642a	-0.23280397
205	0x3d7eaa2d	0.06217401
206	0xbf069a32	-0.52579033
207	0x3f06dace	0.5267762
208	0xbdb0cfc4	-0.08633378
209	0xbe8ac3ae	-0.27102417
210	0xbe2e43c0	-0.17018032
211	0x3e569955	0.20956929
212	0xbd1afdb9	-0.037839625
213	0x3e9e6cb2	0.30942303
214	0x3d2061f7	0.039155927
215	0xbeab0627	-0.3340313
216	0xbed8763d	-0.4227771
217	0x3d872318	0.065984905
218	0xbf3e3fe2	-0.7431623
219	0x3e4419ff	0.19150542
220	0x3e0121c6	0.1261054
221	0xbe3d45ea	-0.18483701
222	0x3e93d8ce	0.28876346
223	0x3de3848c	0.11109266
224	0x3f48f781	0.7850266
225	0xbea3e7e8	-0.32012868
226	0x3d1c89a0	0.038217187
227	0xbe1c7702	-0.15279773
228	0xbdbeb524	-0.093118936
229	0x3e7926f0	0.2433126
230	0x3f2da6dd	0.6783274
231	0xbef370f9	-0.4754713
232	0x3fda0781	1.703354
233	0xbf90f488	-1.1324625
234	0x3f419836	0.7562288
235	0xbf774701	-0.9659272
236	0xbf2f4eff	-0.68479913
237	0xbf60e703	-0.87852496
238	0xc06ed133	-3.7315185
239	0xc06eda95	-3.7320912
