middleware/eiq/tensorflow-lite/examples/kws/ds_cnn_s.tflite (tflite, 54320 bytes, 10 tensors)

sequential/batch_normalization/FusedBatchNormV3;sequential/depthwise_conv2d/depthwise;sequential/depthwise_conv2d/BiasAdd;sequential/conv2d_3/Conv2D;sequential/depthwise_conv2d/BiasAdd/ReadVariableOp/resource i1 [1, 10, 4, 64]
84 -33 -32 -82 13 -29 93 -127
-87 5 52 6 82 43 18 -27
15 -49 -94 83 -34 1 81 -30
16 -56 -127 -58 84 -11 -15 -55
-14 55 -91 -115 84 78 14 -77
-25 6 30 -83 35 35 -111 28
-35 -2 -46 67 38 -60 32 -64
46 101 50 -12 4 -67 -72 31
-37 -6 127 -92 -10 -7 -24 -49
-26 3 -34 98 26 41 -82 105
42 -74 7 30 -11 34 20 10
127 -68 53 -23 -17 32 6 -84
14 -111 81 -62 -44 127 -81 17
76 -18 -41 82 74 -14 -1 -64
-70 -61 -32 33 58 -25 -57 -68
16 127 50 -92 54 -67 78 -52
-88 -18 -9 109 42 -11 -70 2
62 74 86 -47 -17 -16 56 64
-75 -9 10 -31 50 -67 -76 11
-71 -8 17 48 30 76 -21 95
-47 28 -51 69 -115 96 -33 127
11 -45 23 -85 3 -38 25 -88
46 43 68 61 -55 70 -27 -74
56 36 76 -30 20 -37 18 82
-1 -64 63 38 62 45 -2 88
62 -127 -72 -82 -9 -88 -7 -89
103 -45 1 -94 23 -74 -7 16
64 75 -39 20 93 -127 -30 -34
-80 -49 -44 117 -27 -119 -82 -64
-58 -14 39 100 17 89 77 -8
-67 -50 -109 7 -110 -39 11 -60
-75 -124 -10 -63 -96 -35 -79 94
00000000: 54df e0ae 0de3 5d81 a905 3406 522b 12e5
00000010: 0fcf a253 de01 51e2 10c8 81c6 54f5 f1c9
00000020: f237 a58d 544e 0eb3 e706 1ead 2323 911c
00000030: ddfe d243 26c4 20c0 2e65 32f4 04bd b81f
00000040: dbfa 7fa4 f6f9 e8cf e603 de62 1a29 ae69
00000050: 2ab6 071e f522 140a 7fbc 35e9 ef20 06ac
00000060: 0e91 51c2 d47f af11 4cee d752 4af2 ffc0
00000070: bac3 e021 3ae7 c7bc 107f 32a4 36bd 4ecc
00000080: a8ee f76d 2af5 ba02 3e4a 56d1 eff0 3840
00000090: b5f7 0ae1 32bd b40b b9f8 1130 1e4c eb5f
000000a0: d11c cd45 8d60 df7f 0bd3 17ab 03da 19a8
000000b0: 2e2b 443d c946 e5b6 3824 4ce2 14db 1252
000000c0: ffc0 3f26 3e2d fe58 3e81 b8ae f7a8 f9a7
000000d0: 67d3 01a2 17b6 f910 404b d914 5d81 e2de
000000e0: b0cf d475 e589 aec0 c6f2 2764 1159 4df8
000000f0: bdce 9307 92d9 0bc4 b584 f6c1 a0dd b15e

sequential/batch_normalization_1/FusedBatchNormV3;sequential/depthwise_conv2d_1/depthwise;sequential/depthwise_conv2d_1/BiasAdd;sequential/conv2d_3/Conv2D;sequential/depthwise_conv2d_1/BiasAdd/ReadVariableOp/resource i1 [1, 3, 3, 64]
33 61 27 -127 44 74 -49 -54
21 -32 -30 -79 -78 -67 -81 -37
-26 -77 24 -114 16 94 29 -59
127 -73 21 93 99 -82 0 21
81 -102 -79 0 -104 14 -74 43
-127 98 -10 75 -37 -55 77 12
-47 -32 127 29 -30 -56 -127 23
124 -12 -127 -24 -115 60 -91 -26
-24 -27 -26 98 62 46 -43 89
-102 -37 77 -27 -82 94 96 -16
-127 -127 99 0 -23 91 -127 15
-20 104 127 127 54 94 -5 11
-127 -66 43 80 65 -5 109 47
-94 73 24 45 -67 -77 -127 70
127 -28 79 127 123 -12 -25 114
-74 127 6 121 -48 -127 -48 21
-76 52 83 -27 -28 76 -37 -67
33 -47 31 -8 -73 29 -127 30
91 -81 -44 127 108 -62 77 35
-7 25 -58 -18 86 -43 87 -50
-52 -14 -52 -89 -116 127 60 43
-126 -86 16 73 50 114 18 114
-32 -37 65 -33 94 -65 -111 -108
-99 -61 58 -82 77 -43 63 45
-13 -127 72 104 91 -64 -46 32
127 105 127 -81 44 2 -28 58
-96 82 42 -38 127 -15 33 -71
113 -16 -31 -93 -45 78 109 29
-9 8 -12 -4 44 -50 65 -32
35 -116 -59 -127 114 -124 -43 7
-56 2 82 -113 127 38 -41 -114
-2 -20 46 -127 100 51 52 -13
00000000: 213d 1b81 2c4a cfca 15e0 e2b1 b2bd afdb
00000010: e6b3 188e 105e 1dc5 7fb7 155d 63ae 0015
00000020: 519a b100 980e b62b 8162 f64b dbc9 4d0c
00000030: d1e0 7f1d e2c8 8117 7cf4 81e8 8d3c a5e6
00000040: e8e5 e662 3e2e d559 9adb 4de5 ae5e 60f0
00000050: 8181 6300 e95b 810f ec68 7f7f 365e fb0b
00000060: 81be 2b50 41fb 6d2f a249 182d bdb3 8146
00000070: 7fe4 4f7f 7bf4 e772 b67f 0679 d081 d015
00000080: b434 53e5 e44c dbbd 21d1 1ff8 b71d 811e
00000090: 5baf d47f 6cc2 4d23 f919 c6ee 56d5 57ce
000000a0: ccf2 cca7 8c7f 3c2b 82aa 1049 3272 1272
000000b0: e0db 41df 5ebf 9194 9dc3 3aae 4dd5 3f2d
000000c0: f381 4868 5bc0 d220 7f69 7faf 2c02 e43a
000000d0: a052 2ada 7ff1 21b9 71f0 e1a3 d34e 6d1d
000000e0: f708 f4fc 2cce 41e0 238c c581 7284 d507
000000f0: c802 528f 7f26 d78e feec 2e81 6433 34f3

sequential/batch_normalization_3/FusedBatchNormV3;sequential/depthwise_conv2d_2/depthwise;sequential/depthwise_conv2d_2/BiasAdd;sequential/conv2d_3/Conv2D;sequential/depthwise_conv2d_2/BiasAdd/ReadVariableOp/resource i1 [1, 3, 3, 64]
-90 -47 -85 -118 1 -72 -84 76
88 64 -127 8 -79 20 32 -20
-68 -51 -75 114 -65 -69 34 30
-127 -38 117 37 -127 127 -90 115
-103 -2 -41 -79 85 -127 89 -65
36 122 67 -1 127 65 -97 51
127 -56 -127 11 90 -87 127 100
102 7 -96 -114 127 -51 -127 82
-99 -127 -7 -63 101 -52 1 -83
39 98 -50 -32 107 81 -13 -39
38 103 60 -120 35 17 -71 84
-78 -19 85 -17 107 83 32 106
108 83 101 -66 -66 -95 -63 -72
-89 127 15 -29 62 35 -40 -52
47 -18 56 15 127 127 56 89
127 -83 -29 46 52 -36 -33 125
-127 112 -8 -66 -127 -22 -91 21
-29 -102 45 48 69 56 -38 80
-31 100 -14 -109 -14 76 33 71
84 28 18 105 -71 -84 -76 -127
91 -127 -109 127 127 18 -125 -109
27 25 116 -3 -48 51 86 -69
39 -64 92 84 31 -86 40 -127
-35 23 -27 67 -81 -34 -87 26
-14 85 -12 -108 33 -81 39 -47
2 -78 -14 127 -127 10 -79 -127
-33 72 -101 -120 53 -25 90 115
-54 109 -34 16 100 47 107 16
17 -36 -18 46 65 -62 -61 -98
-82 95 -127 -127 -50 108 33 73
-13 -93 69 -109 77 -79 91 102
52 64 -90 53 53 60 -36 80
00000000: a6d1 ab8a 01b8 ac4c 5840 8108 b114 20ec
00000010: bccd b572 bfbb 221e 81da 7525 817f a673
00000020: 99fe d7b1 5581 59bf 247a 43ff 7f41 9f33
00000030: 7fc8 810b 5aa9 7f64 6607 a08e 7fcd 8152
00000040: 9d81 f9c1 65cc 01ad 2762 cee0 6b51 f3d9
00000050: 2667 3c88 2311 b954 b2ed 55ef 6b53 206a
00000060: 6c53 65be bea1 c1b8 a77f 0fe3 3e23 d8cc
00000070: 2fee 380f 7f7f 3859 7fad e32e 34dc df7d
00000080: 8170 f8be 81ea a515 e39a 2d30 4538 da50
00000090: e164 f293 f24c 2147 541c 1269 b9ac b481
000000a0: 5b81 937f 7f12 8393 1b19 74fd d033 56bb
000000b0: 27c0 5c54 1faa 2881 dd17 e543 afde a91a
000000c0: f255 f494 21af 27d1 02b2 f27f 810a b181
000000d0: df48 9b88 35e7 5a73 ca6d de10 642f 6b10
000000e0: 11dc ee2e 41c2 c39e ae5f 8181 ce6c 2149
000000f0: f3a3 4593 4db1 5b66 3440 a635 353c dc50

sequential/batch_normalization_5/FusedBatchNormV3;sequential/depthwise_conv2d_3/depthwise;sequential/depthwise_conv2d_3/BiasAdd;sequential/conv2d_3/Conv2D;sequential/depthwise_conv2d_3/BiasAdd/ReadVariableOp/resource i1 [1, 3, 3, 64]
56 -75 127 -28 -3 -18 -74 -127
62 83 -53 -89 127 -85 73 -102
54 23 11 -24 7 -19 97 -37
127 71 -124 45 -112 103 -127 -33
69 127 79 -85 -13 53 -74 -55
-47 -82 57 -127 46 9 39 -97
113 -22 -90 70 -85 -86 -58 69
-106 -60 -6 101 42 69 -43 -115
-95 -109 81 69 37 127 100 49
-102 -118 -63 74 -43 -37 -100 126
127 -125 127 51 34 -127 127 49
-46 14 127 -39 -8 127 -84 81
-127 36 -112 -108 -127 -101 77 -85
100 47 -42 107 114 -111 -17 -84
94 32 -127 -32 127 24 86 82
-36 28 -27 -32 -84 -54 -25 64
49 -106 -27 21 127 81 93 71
52 -127 69 -127 43 43 -127 70
-116 -4 -31 -80 91 111 -50 -125
49 -82 -46 102 -127 -41 120 49
88 20 42 44 3 56 115 -104
47 -53 -46 -80 61 125 63 40
127 -18 6 -50 76 -74 34 3
-44 127 34 -15 -94 -127 82 75
127 -98 52 -127 -33 1 -78 86
111 103 47 79 28 -105 23 -94
-81 -52 -108 65 -28 -2 -29 -43
26 -16 -20 81 29 -58 4 46
64 66 -127 -112 -54 -95 -33 82
-42 -127 49 25 -47 127 49 74
-19 127 58 58 -42 5 28 -7
28 -18 42 40 -5 -40 54 -75
00000000: 38b5 7fe4 fdee b681 3e53 cba7 7fab 499a
00000010: 3617 0be8 07ed 61db 7f47 842d 9067 81df
00000020: 457f 4fab f335 b6c9 d1ae 3981 2e09 279f
00000030: 71ea a646 abaa c645 96c4 fa65 2a45 d58d
00000040: a193 5145 257f 6431 9a8a c14a d5db 9c7e
00000050: 7f83 7f33 2281 7f31 d20e 7fd9 f87f ac51
00000060: 8124 9094 819b 4dab 642f d66b 7291 efac
00000070: 5e20 81e0 7f18 5652 dc1c e5e0 acca e740
00000080: 3196 e515 7f51 5d47 3481 4581 2b2b 8146
00000090: 8cfc e1b0 5b6f ce83 31ae d266 81d7 7831
000000a0: 5814 2a2c 0338 7398 2fcb d2b0 3d7d 3f28
000000b0: 7fee 06ce 4cb6 2203 d47f 22f1 a281 524b
000000c0: 7f9e 3481 df01 b256 6f67 2f4f 1c97 17a2
000000d0: afcc 9441 e4fe e3d5 1af0 ec51 1dc6 042e
000000e0: 4042 8190 caa1 df52 d681 3119 d17f 314a
000000f0: ed7f 3a3a d605 1cf9 1cee 2a28 fbd8 36b5

sequential/batch_normalization_7/FusedBatchNormV3;sequential/depthwise_conv2d_4/depthwise;sequential/depthwise_conv2d_4/BiasAdd;sequential/conv2d_3/Conv2D;sequential/depthwise_conv2d_4/BiasAdd/ReadVariableOp/resource i1 [1, 3, 3, 64]
87 1 -21 -63 48 -37 102 53
-127 -87 28 -9 -108 125 -14 -14
98 115 51 -127 -101 20 34 127
-30 18 119 78 67 -26 115 -127
-81 -127 32 71 -32 -54 86 124
49 -121 75 127 9 82 61 76
88 -49 -83 24 47 116 39 8
78 54 -112 38 36 100 -70 -90
-105 -100 -76 -25 -91 73 108 20
50 31 -127 127 113 13 38 -127
14 104 65 34 -127 -4 -21 106
127 -70 25 -12 -61 36 95 83
-68 -26 -127 -37 -46 33 -53 -27
127 -93 -30 27 -4 11 64 75
-106 127 94 65 4 69 -32 -120
28 94 103 -127 -127 28 127 -69
97 15 -127 74 44 -18 49 96
-15 127 19 122 92 97 127 6
113 127 69 88 75 64 -38 66
-2 -127 43 46 54 27 -57 -105
127 75 78 8 -127 -127 -127 109
99 -45 96 100 -127 -49 78 -21
111 90 81 44 28 -37 -127 -87
-88 -127 -127 115 1 -41 14 -78
-127 -120 8 -52 49 -127 -4 27
7 -55 26 16 10 -44 68 28
58 26 127 -80 121 -61 76 29
-11 39 60 123 -127 -99 -40 -19
73 -87 -38 29 89 -4 84 62
45 71 104 -18 -2 127 -30 1
-19 -61 -99 59 -79 -97 0 42
127 -90 -62 -117 -95 114 41 127
00000000: 5701 ebc1 30db 6635 81a9 1cf7 947d f2f2
00000010: 6273 3381 9b14 227f e212 774e 43e6 7381
00000020: af81 2047 e0ca 567c 3187 4b7f 0952 3d4c
00000030: 58cf ad18 2f74 2708 4e36 9026 2464 baa6
00000040: 979c b4e7 a549 6c14 321f 817f 710d 2681
00000050: 0e68 4122 81fc eb6a 7fba 19f4 c324 5f53
00000060: bce6 81db d221 cbe5 7fa3 e21b fc0b 404b
00000070: 967f 5e41 0445 e088 1c5e 6781 811c 7fbb
00000080: 610f 814a 2cee 3160 f17f 137a 5c61 7f06
00000090: 717f 4558 4b40 da42 fe81 2b2e 361b c797
000000a0: 7f4b 4e08 8181 816d 63d3 6064 81cf 4eeb
000000b0: 6f5a 512c 1cdb 81a9 a881 8173 01d7 0eb2
000000c0: 8188 08cc 3181 fc1b 07c9 1a10 0ad4 441c
000000d0: 3a1a 7fb0 79c3 4c1d f527 3c7b 819d d8ed
000000e0: 49a9 da1d 59fc 543e 2d47 68ee fe7f e201
000000f0: edc3 9d3b b19f 002a 7fa6 c28b a172 297f

sequential/conv2d/Conv2D i1 [64, 1, 1, 64]
37 127 57 -55 72 108 113 6
-115 81 -122 19 -21 -36 49 29
-34 123 -88 -74 -104 25 61 -82
99 54 80 -119 74 9 48 124
-25 23 -73 84 32 -64 -37 -46
90 86 -71 -110 10 -65 -65 75
-8 77 42 11 -127 0 43 -65
13 2 -39 -5 89 73 122 -40
-112 13 -8 -7 31 51 -46 -14
-122 88 9 -72 -105 -43 -38 -25
47 -91 -61 -15 -97 -32 -40 30
-7 -21 -123 -59 62 -114 -127 113
80 -69 -11 -40 -17 -26 -34 74
-15 63 -1 56 -12 -18 24 -108
-29 102 68 -56 -75 -96 -35 -23
-50 98 15 -22 2 43 15 -38
59 42 -23 95 -44 93 1 -75
52 -5 -8 -26 89 -116 -41 127
-71 9 72 37 58 -63 -118 83
-10 65 41 51 -97 -88 -57 65
-51 -104 -74 26 -74 -109 -22 12
37 1 13 60 118 55 32 49
16 -32 -19 -65 3 34 -42 69
-9 -86 55 13 51 10 -79 10
-91 11 127 -28 48 -35 -59 86
122 66 9 -85 -109 -34 47 47
-32 -107 46 76 59 -116 -43 104
47 23 -16 89 55 11 -89 -116
80 -66 -63 108 -78 98 104 -66
49 49 46 103 -68 2 -90 -70
-51 35 -21 -38 -108 -107 -86 -120
-21 20 72 -29 -54 -55 62 -36
00000000: 257f 39c9 486c 7106 8d51 8613 ebdc 311d
00000010: de7b a8b6 9819 3dae 6336 5089 4a09 307c
00000020: e717 b754 20c0 dbd2 5a56 b992 0abf bf4b
00000030: f84d 2a0b 8100 2bbf 0d02 d9fb 5949 7ad8
00000040: 900d f8f9 1f33 d2f2 8658 09b8 97d5 dae7
00000050: 2fa5 c3f1 9fe0 d81e f9eb 85c5 3e8e 8171
00000060: 50bb f5d8 efe6 de4a f13f ff38 f4ee 1894
00000070: e366 44c8 b5a0 dde9 ce62 0fea 022b 0fda
00000080: 3b2a e95f d45d 01b5 34fb f8e6 598c d77f
00000090: b909 4825 3ac1 8a53 f641 2933 9fa8 c741
000000a0: cd98 b61a b693 ea0c 2501 0d3c 7637 2031
000000b0: 10e0 edbf 0322 d645 f7aa 370d 330a b10a
000000c0: a50b 7fe4 30dd c556 7a42 09ab 93de 2f2f
000000d0: e095 2e4c 3b8c d568 2f17 f059 370b a78c
000000e0: 50be c16c b262 68be 3131 2e67 bc02 a6ba
000000f0: cd23 ebda 9495 aa88 eb14 48e3 cac9 3edc

sequential/conv2d_1/Conv2D i1 [64, 1, 1, 64]
-88 81 94 113 -1 36 0 -73
-43 -88 105 -7 -127 73 14 124
59 -74 87 -120 -64 -72 33 -49
-7 -6 -78 -23 34 -107 -26 66
100 -106 -99 12 17 49 64 -61
-73 8 -45 76 33 -48 60 -109
85 -22 1 -113 70 -88 60 25
67 26 -54 -42 -121 -94 -6 -8
-119 -80 -106 46 6 12 97 -47
-78 109 -58 -76 -110 16 50 -56
-69 3 35 -84 -30 -57 11 122
-27 -26 -98 -71 -5 69 -21 -50
-78 36 -5 -72 49 86 18 26
-39 25 104 -103 -114 89 88 76
-59 86 80 -22 -86 14 49 -83
100 -59 103 64 -127 -65 104 42
70 -22 -9 -52 47 90 -87 -67
85 6 -3 -48 71 -20 -73 -11
42 50 -9 -59 -81 -15 59 -8
-47 -89 6 -19 -65 12 50 43
48 43 -84 -54 -94 106 -94 -79
-39 49 123 -83 92 102 -127 -63
-18 -112 -14 32 69 78 -66 60
22 -88 35 -99 81 -119 67 -94
78 75 3 9 110 -76 127 -97
7 -22 55 -117 4 94 -110 1
-76 121 -83 15 -103 99 71 98
8 -75 -15 72 -60 53 -95 -100
106 -24 77 115 -78 6 93 2
-95 75 57 51 -68 74 -11 -13
-22 -7 90 -41 -84 -23 -53 -52
103 -119 39 109 -9 -116 38 -94
00000000: a851 5e71 ff24 00b7 d5a8 69f9 8149 0e7c
00000010: 3bb6 5788 c0b8 21cf f9fa b2e9 2295 e642
00000020: 6496 9d0c 1131 40c3 b708 d34c 21d0 3c93
00000030: 55ea 018f 46a8 3c19 431a cad6 87a2 faf8
00000040: 89b0 962e 060c 61d1 b26d c6b4 9210 32c8
00000050: bb03 23ac e2c7 0b7a e5e6 9eb9 fb45 ebce
00000060: b224 fbb8 3156 121a d919 6899 8e59 584c
00000070: c556 50ea aa0e 31ad 64c5 6740 81bf 682a
00000080: 46ea f7cc 2f5a a9bd 5506 fdd0 47ec b7f5
00000090: 2a32 f7c5 aff1 3bf8 d1a7 06ed bf0c 322b
000000a0: 302b acca a26a a2b1 d931 7bad 5c66 81c1
000000b0: ee90 f220 454e be3c 16a8 239d 5189 43a2
000000c0: 4e4b 0309 6eb4 7f9f 07ea 378b 045e 9201
000000d0: b479 ad0f 9963 4762 08b5 f148 c435 a19c
000000e0: 6ae8 4d73 b206 5d02 a14b 3933 bc4a f5f3
000000f0: eaf9 5ad7 ace9 cbcc 6789 276d f78c 26a2

sequential/conv2d_2/Conv2D i1 [64, 1, 1, 64]
87 -40 -103 -24 -94 31 -11 98
78 8 35 111 78 -104 -47 -30
-109 41 -55 -78 -101 -96 115 36
-23 107 -20 -124 56 13 55 -39
-24 -82 -94 26 -35 95 -32 33
85 55 61 -28 110 -36 76 -115
90 42 -99 14 -96 -78 65 -64
127 48 74 72 -43 115 -73 -44
70 30 -80 11 18 69 -98 2
12 26 -31 -23 35 -71 73 -41
33 -39 -33 99 79 39 74 -71
80 113 56 92 127 -107 -31 78
-103 32 72 90 43 67 91 -51
124 -32 78 20 -29 -90 -94 -5
-22 68 83 23 -2 62 -119 -56
-63 44 7 -32 34 113 -121 -92
-43 86 -40 65 -92 -47 -127 -53
63 37 86 116 -41 3 2 -25
-68 -22 105 102 -41 -115 28 -28
-4 -23 44 -19 1 7 60 30
56 -5 -98 20 -31 -82 117 95
-94 72 -48 53 -85 -55 0 33
67 23 77 -22 -109 58 58 87
-102 -57 -49 -21 1 78 -77 51
-117 76 -88 -57 -35 -41 97 126
34 -45 -79 -23 -95 112 54 -106
66 62 -79 -118 -127 64 87 5
-64 112 -21 -26 119 -19 12 -2
-73 -94 43 -6 55 -89 -10 -26
-83 -53 -28 -18 -50 -34 109 -66
77 114 -105 -78 -59 -79 -12 -51
41 24 42 -95 -89 -113 -100 106
00000000: 57d8 99e8 a21f f562 4e08 236f 4e98 d1e2
00000010: 9329 c9b2 9ba0 7324 e96b ec84 380d 37d9
00000020: e8ae a21a dd5f e021 5537 3de4 6edc 4c8d
00000030: 5a2a 9d0e a0b2 41c0 7f30 4a48 d573 b7d4
00000040: 461e b00b 1245 9e02 0c1a e1e9 23b9 49d7
00000050: 21d9 df63 4f27 4ab9 5071 385c 7f95 e14e
00000060: 9920 485a 2b43 5bcd 7ce0 4e14 e3a6 a2fb
00000070: ea44 5317 fe3e 89c8 c12c 07e0 2271 87a4
00000080: d556 d841 a4d1 81cb 3f25 5674 d703 02e7
00000090: bcea 6966 d78d 1ce4 fce9 2ced 0107 3c1e
000000a0: 38fb 9e14 e1ae 755f a248 d035 abc9 0021
000000b0: 4317 4dea 933a 3a57 9ac7 cfeb 014e b333
000000c0: 8b4c a8c7 ddd7 617e 22d3 b1e9 a170 3696
000000d0: 423e b18a 8140 5705 c070 ebe6 77ed 0cfe
000000e0: b7a2 2bfa 37a7 f6e6 adcb e4ee cede 6dbe
000000f0: 4d72 97b2 c5b1 f4cd 2918 2aa1 a78f 9c6a

sequential/conv2d_3/Conv2D i1 [64, 1, 1, 64]
7 5 -103 -93 65 -94 -54 45
119 -53 66 80 -47 -81 -105 -110
-68 51 -16 63 25 -24 3 -26
-89 -123 31 6 -41 77 -127 -74
-22 -59 -32 -75 106 -31 51 107
-82 -93 -65 46 36 -13 99 102
65 83 85 -58 -111 -104 -57 64
-93 0 8 -90 79 -23 -34 -68
-89 -22 -88 -124 91 97 -108 -5
3 -93 29 36 -64 87 91 -23
-70 -94 9 -78 -19 -71 70 -19
9 127 76 13 -5 9 1 -29
-10 -66 -13 42 67 -92 -70 65
-73 27 109 -70 -80 99 -26 -97
-8 85 64 27 -104 -77 -101 10
-82 32 79 35 73 14 -74 -24
-88 -79 -101 4 -50 64 49 -50
57 77 -7 61 42 57 -74 66
18 -79 -51 -90 -76 14 101 -83
-63 -61 -60 -20 -127 -52 -25 -90
-89 110 102 -5 101 57 105 56
-78 89 91 -102 -66 -82 15 25
-106 7 -21 -78 -22 16 43 123
111 -84 -62 24 -14 -22 102 42
54 36 28 -33 -75 -16 77 -16
-101 -12 24 14 71 -17 -18 -88
-15 75 -47 -39 -24 48 -98 -9
58 80 -74 34 -2 -83 -44 86
47 -7 -39 -20 31 4 27 69
-92 56 -44 107 65 127 98 -87
2 83 -79 -64 74 -56 -8 18
32 4 -105 -98 -41 -81 12 -28
00000000: 0705 99a3 41a2 ca2d 77cb 4250 d1af 9792
00000010: bc33 f03f 19e8 03e6 a785 1f06 d74d 81b6
00000020: eac5 e0b5 6ae1 336b aea3 bf2e 24f3 6366
00000030: 4153 55c6 9198 c740 a300 08a6 4fe9 debc
00000040: a7ea a884 5b61 94fb 03a3 1d24 c057 5be9
00000050: baa2 09b2 edb9 46ed 097f 4c0d fb09 01e3
00000060: f6be f32a 43a4 ba41 b71b 6dba b063 e69f
00000070: f855 401b 98b3 9b0a ae20 4f23 490e b6e8
00000080: a8b1 9b04 ce40 31ce 394d f93d 2a39 b642
00000090: 12b1 cda6 b40e 65ad c1c3 c4ec 81cc e7a6
000000a0: a76e 66fb 6539 6938 b259 5b9a beae 0f19
000000b0: 9607 ebb2 ea10 2b7b 6fac c218 f2ea 662a
000000c0: 3624 1cdf b5f0 4df0 9bf4 180e 47ef eea8
000000d0: f14b d1d9 e830 9ef7 3a50 b622 fead d456
000000e0: 2ff9 d9ec 1f04 1b45 a438 d46b 417f 62a9
000000f0: 0253 b1c0 4ac8 f812 2004 979e d7af 0ce4

sequential/batch_normalization_9/batchnorm/mul_1 i1 [12, 64] scale=0.006161904 zero_point=0
0.18485712 0.006161904 0.024647616 -0.579219 0.3389047 -0.18485712 0.036971424 -0.1602095
0.3019333 -0.449819 0.11707617 0.13556188 0.2834476 0.4621428 0.20334283 0.37587613
-0.4683047 -0.17869522 -0.54840946 -0.11707617 0.2957714 0.55457133 0.26496187 0.51759994
-0.10475237 0.36971423 0.27112377 0.48679042 0.4436571 0.1725333 0.36355233 -0.3327428
0.20334283 0.52992374 0.41900948 0.2834476 -0.42517138 0.320419 0.018485712 -0.23415235
-0.5977047 -0.43749517 -0.08010475 0.3450666 0.3450666 -0.511438 0.49911422 -0.018485712
-0.3080952 0.19718093 0.043133326 -0.58538085 -0.36971423 -0.12939999 0.3327428 -0.320419
-0.38203806 -0.31425712 -0.20950474 -0.18485712 -0.36355233 0.03080952 -0.41900948 -0.4683047
0.043133326 -0.4621428 0.43749517 0.22182855 0.40668565 0.5668952 0.49295232 -0.24647616
0.57305706 -0.19718093 -0.36355233 0.07394285 0.03080952 0.1478857 -0.2834476 -0.07394285
0.36355233 0.06161904 -0.27728567 -0.6223523 -0.4436571 -0.2957714 0.48062852 0.6469999
-0.40052375 -0.4559809 -0.65932375 0.06778094 0.3080952 -0.19718093 0.110914275 -0.3327428
0.5237618 -0.50527614 0.320419 0.18485712 -0.1602095 0.6100285 -0.2896095 0.41900948
0.1663714 0.320419 0.04929523 0.018485712 -0.1478857 -0.35739043 -0.579219 0.54224753
-0.39436185 0.21566664 0.6778094 0.1540476 -0.38203806 0.25263807 0.69629514 -0.1417238
-0.52992374 -0.5668952 -0.12939999 -0.13556188 -0.25879997 0.19718093 -0.49295232 -0.40052375
0.4559809 -0.6223523 0.2834476 0.22799045 0.4744666 0.1478857 0.5237618 -0.10475237
-0.48679042 -0.35122854 -0.23415235 0.41284758 0.09859046 0.5237618 -0.06778094 0.49911422
0.4621428 -0.11707617 0.036971424 0.55457133 -0.52992374 -0.110914275 -0.54224753 -0.2896095
0.18485712 0.58538085 -0.51759994 -0.6346761 -0.35739043 0.27728567 -0.26496187 -0.1725333
0.27112377 -0.22799045 0.20950474 0.38819996 -0.38203806 0.3080952 0.18485712 0.27112377
0.55457133 0.09859046 0.036971424 -0.055457138 0.48679042 -0.20950474 0.24031426 -0.27728567
-0.08626665 0.4436571 -0.17869522 -0.54224753 0.23415235 0.49911422 -0.27112377 -0.54840946
0.043133326 -0.52992374 0.31425712 0.006161904 0.3450666 0.36355233 0.4683047 -0.51759994
-0.320419 -0.1602095 -0.49295232 -0.12323808 0.6100285 -0.3450666 0.41900948 -0.21566664
0.27112377 -0.43133327 0.40052375 0.48062852 -0.3389047 -0.4436571 -0.5668952 -0.54224753
-0.41900948 -0.449819 0.06778094 0.036971424 0.37587613 0.4744666 0.62851423 0.10475237
0.10475237 -0.25879997 -0.54840946 0.13556188 -0.1478857 -0.35739043 -0.42517138 -0.6038666
-0.39436185 -0.58538085 -0.54840946 0.579219 -0.043133326 0.09859046 -0.024647616 0.39436185
-0.31425712 0.4744666 -0.08626665 0.11707617 -0.12939999 0.38819996 0.449819 -0.49295232
0.11707617 -0.36355233 0.08010475 0.07394285 0.19718093 0.40052375 0.36971423 -0.12323808
-0.20334283 0.036971424 -0.40052375 0.055457138 0.41900948 -0.04929523 0.04929523 0.49911422
00000000: 1e01 04a2 37e2 06e6 31b7 1316 2e4b 213d
00000010: b4e3 a7ed 305a 2b54 ef3c 2c4f 481c 3bca
00000020: 2156 442e bb34 03da 9fb9 f338 38ad 51fd
00000030: ce20 07a1 c4eb 36cc c2cd dee2 c505 bcb4
00000040: 07b5 4724 425c 50d8 5de0 c50c 0518 d2f4
00000050: 3b0a d39b b8d0 4e69 bfb6 950b 32e0 12ca
00000060: 55ae 341e e663 d144 1b34 0803 e8c6 a258
00000070: c023 6e19 c229 71e9 aaa4 ebea d620 b0bf
00000080: 4a9b 2e25 4d18 55ef b1c7 da43 1055 f551
00000090: 4bed 065a aaee a8d1 1e5f ac99 c62d d5e4
000000a0: 2cdb 223f c232 1e2c 5a10 06f7 4fde 27d3
000000b0: f248 e3a8 2651 d4a7 07aa 3301 383b 4cac
000000c0: cce6 b0ec 63c8 44dd 2cba 414e c9b8 a4a8
000000d0: bcb7 0b06 3d4d 6611 11d6 a716 e8c6 bb9e
000000e0: c0a1 a75e f910 fc40 cd4d f213 eb3f 49b0
000000f0: 13c5 0d0c 2041 3cec df06 bf09 44f8 0851
